model.tflite (tflite, 35072 bytes, 5 tensors)

sequential/dense_1/BiasAdd/ReadVariableOp f4 [150]
000000 25 34 c9 3d a4 6f 59 bc 0b 6c da bd e4 03 b4 3d
       0.09824399 -0.013271246 -0.10665139 0.087898046
000010 c8 e3 aa bb d2 1c 79 3c d0 ba 07 3e cb 07 24 bc
       -0.005215142 0.015204625 0.13254857 -0.010011624
000020 b1 fb b8 3d 38 36 3c 3e 25 2b c6 3d a4 c7 bf 3c
       0.09032381 0.18380058 0.09676198 0.023410626
000030 eb 28 dd 3d 04 fb b8 bd 41 9b f6 bd 65 91 7a bd
       0.1079882 -0.090322524 -0.12041331 -0.061173815
000040 fd 7e d3 bd 5c 60 b9 3d 00 00 00 00 ef 56 bb bd
       -0.103269555 0.09051582 0.0 -0.09147441
000050 74 72 ac 3d 4c 14 18 bc ee 8b b4 b7 5b 68 ed bd
       0.08420268 -0.009282183 -2.1522832e-05 -0.1159217
000060 bf be ca 3d 3a 1d 14 3e 19 4f fd bd 07 78 0a bc
       0.09899663 0.14464274 -0.12368602 -0.008451468
000070 00 00 00 00 00 00 00 00 c5 85 b2 3d cb ee c5 bd
       0.0 0.0 0.08716921 -0.09664687
000080 92 2a ad 3d fb 89 be 3d b4 7a cb bd 00 00 00 00
       0.08455385 0.093036614 -0.09935513 0.0
000090 64 51 eb bd 0c 20 0f be 98 9a fb bb 33 17 c3 3d
       -0.114901334 -0.13977069 -0.007678341 0.09525909
0000a0 29 23 3a 3d 3e 07 c0 bd d0 63 89 3d 95 95 d7 bd
       0.045443688 -0.09376381 0.06708491 -0.105265774
0000b0 8f ac bb bd ea 2d ad 3d 32 52 c9 3b 4b b7 b9 3d
       -0.09163772 0.08456023 0.0061438316 0.090681635
0000c0 00 00 00 00 f2 ca 9c bd 43 15 c0 3d 1e 9f a2 bb
       0.0 -0.07655896 0.09379055 -0.004962816
0000d0 60 27 05 3e d6 7c 0b bc c1 1f b8 3d 72 d6 bc 3d
       0.13003302 -0.00851365 0.089904316 0.0922059
0000e0 00 00 00 00 00 00 00 00 b7 04 b3 3b 00 00 00 00
       0.0 0.0 0.0054632085 0.0
0000f0 68 92 0a 3c 89 86 ab 3d 00 00 00 00 bc ca eb 3d
       0.0084577575 0.0837527 0.0 0.11513278
000100 b8 39 b5 3d e2 37 1c 3d 83 e0 71 3d 00 00 00 00
       0.088488996 0.03813923 0.059052 0.0
000110 00 00 00 00 a8 c2 9e bd 00 00 00 00 cd 82 be 3c
       0.0 -0.077519715 0.0 0.02325573
000120 00 00 00 00 63 34 b6 bd 00 00 00 00 6e 4d b7 bd
       0.0 -0.08896711 0.0 -0.089503154
000130 bc 8b 3c 3e d8 e4 c3 bd 1b d2 a6 bd 0a c2 b0 3d
       0.1841268 -0.09565133 -0.08145543 0.0863076
000140 61 81 4a bc aa a4 e7 3d 7f 13 b7 3d 00 00 00 00
       -0.012359948 0.11310704 0.089392655 0.0
000150 88 88 b9 bd a4 94 15 bc 79 fa b1 3d fa 07 75 bd
       -0.090592444 -0.009129677 0.08690352 -0.05982206
000160 98 5d 2c 3e 5e 09 b3 bb 47 d6 31 bc dd 3e af bd
       0.16832578 -0.005463763 -0.01085431 -0.08556912
000170 6a 17 ab bb 00 00 00 00 a3 a3 05 bd 82 89 1f bc
       -0.005221297 0.0 -0.03262676 -0.009737374
000180 e1 18 bb 3d 05 f1 e8 bb 43 ac ab bd 00 00 00 00
       0.09135605 -0.00710881 -0.08382466 0.0
000190 97 ed 9f bd 1e 8c 2e 3e 8a 8a 13 bc bb 74 1b 3c
       -0.078089885 0.17045638 -0.009005198 0.00948828
0001a0 ae 5a a7 bd eb 2b 8f 3d af 2e 03 bc 57 91 b7 3d
       -0.08171593 0.069907986 -0.008006736 0.08963268
0001b0 77 0f 2a 3d 77 8e d3 bd b1 ed a6 bd 5e bb 62 3d
       0.041518655 -0.103299074 -0.08150805 0.05535447
0001c0 b0 ed 89 3d 00 00 00 00 1f 20 1d 3e 41 71 c8 bd
       0.067347884 0.0 0.15344284 -0.097872265
0001d0 00 00 00 00 10 94 97 3d 06 5a bf 3d 7b 86 0c bc
       0.0 0.074012876 0.093433425 -0.0085769845
0001e0 00 00 00 00 78 be d6 3d 00 00 00 00 8d 96 b4 bd
       0.0 0.10485548 0.0 -0.08817778
0001f0 23 ef b5 bd dd 38 f2 bb bc c9 a7 bd 85 fe a2 bd
       -0.08883502 -0.0073920325 -0.08192775 -0.07958702
000200 17 6f d7 bd 0c 24 92 2b 00 00 00 00 f6 2d bc bd
       -0.105192356 1.0383929e-12 0.0 -0.09188454
000210 8d c9 b6 3d d2 04 bd bc dd 67 c5 bd d8 09 bf bd
       0.089251615 -0.023073588 -0.09638951 -0.093280494
000220 00 00 00 00 67 45 37 bc d7 b3 bb bd ca cf 96 3d
       0.0 -0.01118598 -0.09165161 0.07363851
000230 00 00 00 00 b7 ee fb 3c d0 1f ab bd 02 0d a7 3d
       0.0 0.030753477 -0.08355677 0.08156778
000240 86 03 ee bb 89 9a 2a bc 1e 17 ad bc 89 60 d5 bd
       -0.0072636036 -0.010412821 -0.021129187 -0.10418803
000250 34 66 b0 3d b8 44 f7 bd
       0.08613244 -0.12073654

sequential/dense/BiasAdd/ReadVariableOp f4 [50]
000000 a7 9c 36 3c 33 36 9f 3d be 69 62 3d 5f 3b 01 be
       0.011145747 0.077740096 0.055276625 -0.12620305
000010 da 0d 77 3d 00 00 00 00 0c 9a d7 3d da 07 f5 3d
       0.060315944 0.0 0.10527429 0.11964388
000020 76 e1 07 be ed 3a ed 3d 10 3f 18 3c 1e d0 c1 bd
       -0.132696 0.11583505 0.009292379 -0.09463523
000030 f4 02 b0 bd 4b 77 9e bd e4 d5 f2 3d 64 63 39 bb
       -0.08594313 -0.07737597 0.11857203 -0.0028288001
000040 00 00 00 00 28 d5 03 3e 9a 4b a8 3d 95 2f 03 be
       0.0 0.12874281 0.08217545 -0.1281112
000050 c8 ae 3d 3e 16 e3 90 bd 00 00 00 00 86 be bb bd
       0.18523705 -0.07074563 0.0 -0.09167199
000060 2c 72 9a bb 55 f0 a9 3d 5e 26 5b 3b 2c 31 d1 3d
       -0.0047133174 0.08297793 0.0033439617 0.10214457
000070 de 88 75 bb 1a a8 c0 3b 4e c9 06 be 00 00 00 00
       -0.0037465612 0.0058794143 -0.13162729 0.0
000080 06 21 4f ba 23 12 99 3d 1e 83 1e be 94 9e 17 be
       -0.0007901344 0.074741624 -0.15479705 -0.14806587
000090 56 eb 36 be 4d 26 0a bc 1e 35 63 3d 67 ec b5 3d
       -0.17863211 -0.008431983 0.05547058 0.08882981
0000a0 9b af 09 be 92 1c ef bd 00 00 00 00 dc e3 30 3e
       -0.13445894 -0.11675371 0.0 0.17274421
0000b0 70 a0 c9 bb ba 38 46 3d 67 24 b5 3c 00 00 00 00
       -0.006153159 0.048393942 0.022112085 0.0
0000c0 d2 86 fe 3c 63 4e b0 bb
       0.031070147 -0.005380438

sequential/dense/MatMul f4 [50, 8]
000000 bf 76 2e be 25 87 fa bd 42 e0 77 3e d0 49 83 bd
       -0.17037486 -0.12232808 0.24206641 -0.06410563
000010 7d 8a 36 bd ed f9 37 3e 8e bb a6 3e 31 cc 16 bd
       -0.044565666 0.17966433 0.32564968 -0.036815826
000020 f0 ae 9e 3e 9f 26 92 be 15 ae e7 bc 7d c2 4f 3e
       0.30992842 -0.2854509 -0.028281251 0.20289035
000030 ac a2 c7 bd f2 ed 51 3e c9 39 33 bd f4 2a 8c bd
       -0.09747824 0.20500925 -0.04375628 -0.0684413
000040 37 4d c2 be b1 95 6f 3e d8 d1 85 bd 13 25 af 3d
       -0.37949535 0.23396946 -0.06534165 0.08551993
000050 12 05 07 3e d7 14 00 bd 20 62 af 3e 82 62 a3 3d
       0.13185528 -0.031269874 0.3425455 0.07977773
000060 35 15 13 3d 8a 76 ac 3e ae 9f 02 bf ba c8 cb bc
       0.035908896 0.33684188 -0.510249 -0.024875987
000070 63 92 52 3d 10 e8 94 3e 45 34 97 bd 2a 16 19 bf
       0.051409137 0.290833 -0.073830165 -0.59799445
000080 34 49 5d bd 8f 78 a9 be 24 b7 c7 3e ed b3 1f be
       -0.05402489 -0.3309979 0.39006913 -0.1559598
000090 7a 87 99 3d 99 41 8c bb 61 bf c6 bc e1 5c 97 3e
       0.07496543 -0.004280281 -0.024261178 0.29563048
0000a0 f0 67 a6 bc 50 d9 6c 3e 80 3a ac bc 50 7e 0a be
       -0.020313233 0.23129773 -0.021023989 -0.13524747
0000b0 f0 1d 9f 3c 39 8a a4 be da 58 26 be 12 fc c6 bd
       0.019423455 -0.32136706 -0.16244832 -0.09716047
0000c0 a1 bf 89 3e 6a 58 1c 3e e8 fb c5 3e c8 83 67 3e
       0.26904014 0.15268102 0.38668752 0.22608864
0000d0 15 8f bb bc 29 5f 9a be ce 37 0d bc 5a 64 8b bc
       -0.022895375 -0.30150726 -0.008619262 -0.017015625
0000e0 c0 03 50 3e 91 c1 ab be 6f 52 c8 3e 70 e0 1d bd
       0.2031393 -0.33546117 0.39125392 -0.03854412
0000f0 20 b8 d0 3d b1 73 13 be a9 a7 c3 3e 1d 48 40 3e
       0.10191369 -0.14399602 0.38213852 0.18777509
000100 be 1c b8 3d b1 4a 1b 3e 5d 19 91 be 68 07 a6 be
       0.08989857 0.15165211 -0.28339663 -0.32427526
000110 52 82 e7 3d 08 8e b8 3d 3a 9b c4 be 73 19 2e bf
       0.113041535 0.09011465 -0.38399678 -0.6800758
000120 66 c8 3b 3e d8 a9 6a be a4 e2 ef 3e dd 5c 09 be
       0.18338165 -0.22916353 0.468526 -0.13414331
000130 64 cc 6c 3e a0 61 9e 3e e4 a7 30 3e bc aa 37 3e
       0.23124844 0.30933857 0.17251545 0.17936224
000140 26 ff e4 bd 19 22 aa bd b5 af 47 be 12 52 72 3e
       -0.11181478 -0.08307285 -0.1950062 0.2366412
000150 2e 00 ed 3c 0d 46 81 be 10 69 47 3d ef 4c 90 3b
       0.02893075 -0.25248757 0.04868418 0.0044037024
000160 0f de 5d 3e aa 3f 0d be 4b 96 d1 be 4a 26 88 3e
       0.2166674 -0.13793817 -0.40934977 0.26591712
000170 77 f4 0a 3e 08 ae 8f 3c 71 6f ab be 77 57 a9 be
       0.13569818 0.01753904 -0.3348346 -0.33074543
000180 79 b3 9a 3d 17 fe 8d bd d2 ce ef be ba 82 4d 3e
       0.07553763 -0.069332294 -0.4683748 0.200694
000190 88 0f ad bd 8c 86 24 3d a4 68 85 bc 66 4d c9 be
       -0.08450228 0.040167376 -0.016285248 -0.39316863
0001a0 4d 9b 46 3e ac fb 83 3c 5d ff a6 bd f5 f5 7b 3d
       0.1939518 0.016111217 -0.081541754 0.06151386
0001b0 e6 3d 06 be c7 69 27 be 57 e2 3e 3d 08 d3 fd be
       -0.1310955 -0.16348945 0.046602573 -0.49575067
0001c0 2b f8 01 3e 0c cb 62 bd 21 7f 0a 3f b7 14 81 3e
       0.12692325 -0.05536942 0.54100233 0.25211117
0001d0 6b 68 aa bd 47 b7 90 3e 19 b4 c3 3d 92 be 48 3e
       -0.083206974 0.2826483 0.09555835 0.19603947
0001e0 5d 05 24 3e 1a 90 4a be a9 e8 de bc 12 33 83 be
       0.16017671 -0.19781533 -0.02721055 -0.256249
0001f0 b7 30 dc bd d7 ca 92 be a7 5c 65 3d ff 5b 7a 3e
       -0.10751479 -0.2867038 0.055996563 0.24449156
000200 4a 1c aa bd b0 47 2b 3e 56 fa 01 3e 50 e6 2a bd
       -0.08306177 0.16726565 0.12693152 -0.04172355
000210 00 3a 84 bc 94 d1 97 bd ed c7 76 be 55 a1 42 be
       -0.016140938 -0.07413021 -0.24099703 -0.19006856
000220 c1 63 ed bd e7 41 81 be b8 f7 31 3d 85 1b 8d 3e
       -0.11591292 -0.25245592 0.043449134 0.27560058
000230 5c 2e 97 3e 9a d9 9f 3d 79 57 a2 3e 1a 97 20 3f
       0.29527557 0.07805176 0.3170736 0.6273056
000240 e0 8f 99 3e 21 b3 fe bd f5 c0 64 3e 6c 91 8a be
       0.2999258 -0.1243651 0.22339232 -0.27064073
000250 cd 83 b1 3c 19 b3 89 bd 0a b7 1c 3e 57 e7 80 3e
       0.021669293 -0.06723613 0.15304199 0.25176498
000260 e8 07 57 3e 0e db ab 3e be cb 8e be 89 2a ab be
       0.2099911 0.33565563 -0.27889818 -0.3343089
000270 a1 2a f9 bd 79 41 43 bd bd 80 c1 bd 11 d6 35 be
       -0.12166334 -0.04766986 -0.09448383 -0.17757441
000280 6c 1a 44 bc 75 f3 d7 be 83 c3 2b 3f 51 3f 72 be
       -0.01196919 -0.4217793 0.670952 -0.23656966
000290 30 61 a7 3d b5 35 8b 3d 93 8e a4 3e ab 36 21 3f
       0.08172834 0.06797353 0.32140025 0.6297404
0002a0 58 59 0b 3e 01 00 ea bd d1 7e de bc 8b 28 2f bd
       0.136083 -0.11425782 -0.02716008 -0.042763274
0002b0 79 d5 49 3e 11 25 9a 3e 6f 72 86 bd af e3 cb be
       0.1971034 0.30106404 -0.06564795 -0.39822146
0002c0 e7 a6 19 be a2 23 8b be f4 2e d0 3d 24 8a 20 be
       -0.15005074 -0.27175623 0.101652056 -0.15677696
0002d0 df 17 a2 be cc 4e a3 bd fc c2 f5 3d 80 e0 5a bb
       -0.31658837 -0.07974014 0.12000081 -0.0033397973
0002e0 dd 2d 90 3e 0a a3 f8 3d e2 9f cc bc 26 0a 56 be
       0.2815999 0.12140472 -0.024978582 -0.20902309
0002f0 7c 29 93 be 39 f7 ad be e3 9c 96 be 4b 2d 7f be
       -0.28742588 -0.33977678 -0.2941657 -0.24919622
000300 97 e7 46 3d 4d d8 b1 3a 19 52 5f 3e 90 6d 7f 3e
       0.048560705 0.0013568491 0.21808662 0.24944139
000310 55 e3 5e be 26 02 00 be 48 c4 8e bc bc 9b 52 be
       -0.21766408 -0.1250082 -0.017427579 -0.2056722
000320 85 82 83 be 27 29 61 be a7 b5 a4 bd a7 c1 9f 3e
       -0.25685516 -0.21988355 -0.0804246 0.31202433
000330 a3 a1 38 3e 73 38 b7 bd e4 e4 05 3e 54 52 cf 3e
       0.1803041 -0.08946314 0.13075596 0.404925
000340 c3 a8 24 3e e2 b0 1f 3e 63 52 1d be 80 20 e9 bd
       0.16080002 0.15594819 -0.1536346 -0.11383152
000350 66 b7 22 be a2 26 9d be 4e 65 2a be 26 27 7f be
       -0.15890273 -0.30693537 -0.16640207 -0.24917278
000360 35 7a 58 3e 26 2a 48 be 5f fe 10 3f 34 f6 9d 3e
       0.21140368 -0.19547328 0.5663814 0.308519
000370 b0 25 a8 bd 21 c5 95 be e4 15 80 3e d2 91 11 3f
       -0.08210313 -0.2925196 0.250167 0.5686313
000380 ea 6d 78 be 79 07 66 3e 09 78 5c be b0 e7 03 3e
       -0.24260679 0.22463788 -0.21530165 0.1288135
000390 33 6a 43 3e dd 95 74 be 93 11 25 3e a5 8a a3 be
       0.1908348 -0.23885293 0.16119985 -0.31941715
0003a0 27 5a 9d be d8 30 81 3e 32 42 b6 3d 7e 9e b9 3d
       -0.30732843 0.25232577 0.088993445 0.09063433
0003b0 98 02 8b be c3 d0 c0 3d 2e 40 cf bd 94 9f c9 3d
       -0.27150416 0.09414818 -0.10119663 0.0984489
0003c0 e6 4f 47 3d 4c 25 de 3e 82 89 bb be 39 60 59 be
       0.04866018 0.4338783 -0.36628348 -0.21228112
0003d0 23 85 62 3e 48 30 d9 bd aa 78 ae be 08 bb 20 bf
       0.221211 -0.10604912 -0.34076434 -0.6278539
0003e0 72 21 fb bd c7 99 9b be 62 bb 91 be a8 d2 03 be
       -0.122622386 -0.3039076 -0.28463274 -0.12873328
0003f0 53 d4 30 be 80 2f 09 bd 30 ad 6c 3e 08 8f 63 be
       -0.17268495 -0.033492565 0.23112941 -0.22222531

sequential/dense_1/MatMul f4 [150, 50]
000000 c6 80 60 be 1d 9f a6 3b 81 ba f1 bd 24 b0 28 be
       -0.21924123 0.0050848857 -0.11803151 -0.16473442
000010 45 d2 11 3e 1a 7b 26 3e 53 b0 ad 3c 9d 52 9f bd
       0.14240368 0.16257897 0.021202242 -0.07779429
000020 7f f6 05 3e 3f f9 de 3d dd 19 38 3e 52 3d f3 3d
       0.13082312 0.10887384 0.17978616 0.1187693
000030 38 ec 48 bc c9 e2 be bc e9 84 89 3d d0 0c d6 3d
       -0.01226335 -0.023301499 0.06714804 0.104516625
000040 fa e8 d4 bd 98 1d 61 3d ba 4c a1 3d 6e 8a 9d 3d
       -0.10395999 0.054959863 0.078759626 0.07692419
000050 d2 ff 2f 3c 02 96 aa bd e0 5d 95 bc 4d 8b 4a bc
       0.010742145 -0.08329393 -0.01823324 -0.012362313
000060 b0 ff 6e bd 98 0e 9c bd e7 04 22 3e 15 e6 8d bd
       -0.05834931 -0.07619971 0.15822183 -0.0692865
000070 92 e1 a7 bd 5e 45 f7 bb 5e ab c7 bd 80 6a ae bb
       -0.08197321 -0.007546111 -0.097494826 -0.0053227544
000080 c7 60 29 3e 93 31 81 3e 3f 47 a3 bd 7c 00 b7 3d
       0.16540824 0.25233135 -0.079725735 0.08935639
000090 8d 00 15 be 97 6c da 3d ee 24 b4 3a 62 eb 3e 3c
       -0.14550991 0.10665243 0.0013743916 0.011652799
0000a0 47 dc e7 bd c1 64 b1 3d 60 14 a8 bc 71 b8 27 3d
       -0.113213114 0.086617954 -0.020517528 0.04094738
0000b0 20 44 24 be 47 5a e3 3d 62 cc c4 bc 88 8b 1f 3d
       -0.16041613 0.111012034 -0.024023239 0.038951427
0000c0 cf 3d 2e be 7d 3b 0e be 0a 5f 4b be 4d 67 d9 3a
       -0.17015766 -0.1388988 -0.19860473 0.0016586572
0000d0 f6 59 0a 3e ef a7 00 3e ec f6 59 3d 24 a1 0e 3d
       0.1351088 0.12564062 0.053214 0.034821644
0000e0 2f 02 c0 3c 45 ed c8 bd 2f 1d 2e be 02 7b 0c bd
       0.023438541 -0.098108806 -0.1700332 -0.034296997
0000f0 82 ba 12 3e 01 5c cc 3d df 43 4f bb 09 ca 1b 3d
       0.1432896 0.09978486 -0.0031626148 0.038034473
000100 2e 8d c8 3d f7 74 12 3e 14 44 03 3e f6 fc df 3c
       0.09792553 0.14302431 0.12818938 0.0273423
000110 8a 2a 3f 3c 49 27 13 3e b3 d3 d6 bd 35 c3 db bd
       0.011667857 0.14370455 -0.10489597 -0.10730592
000120 74 2a 97 3d 55 17 1d bd 45 6a c3 3d 05 dd 02 be
       0.07381144 -0.03835233 0.09541754 -0.12779625
000130 a1 ea 01 3d 4d cc 88 3d c2 9b 1c bd b8 bc 8c 3d
       0.0317179 0.06679592 -0.03823448 0.06871933
000140 0e f4 a5 3d 38 be e4 3c db 66 23 3e 41 9e 12 be
       0.0810319 0.027922735 0.15957205 -0.14318182
000150 a9 b2 10 bc 64 3b e8 bd 07 67 c2 3c dd 3e 39 be
       -0.008831658 -0.11339453 0.023730768 -0.18090387
000160 86 7c aa 3d 17 54 dd bd c7 6a f6 bd af a5 20 be
       0.08324532 -0.108070545 -0.12032085 -0.15688203
000170 66 6c 89 bd ab cb ad 3d 36 c3 d8 3d 32 06 23 be
       -0.067101285 0.08486112 0.105841085 -0.15920332
000180 3d 2c 1a bd 00 ad a1 bd c3 ff 26 be 80 b9 e1 3d
       -0.037639845 -0.07894325 -0.16308503 0.110217094
000190 89 47 0f 3d 9e fc e5 3d 25 b4 a5 3d 6a 78 1b 3e
       0.03498033 0.112298235 0.080910005 0.15182653
0001a0 4c 2f 68 be 8c c4 25 3d 88 75 9c bd 3c 88 1b be
       -0.22674292 0.040470645 -0.07639605 -0.15188688
0001b0 28 30 57 3d 1c e6 9d bd 4a 74 f0 3c e6 4b 22 3d
       0.05253616 -0.077099055 0.029352326 0.039623164
0001c0 59 3e 2e 3e ca c6 dc 3d fb 35 92 3d 36 d0 86 bd
       0.17015971 0.107801035 0.07139202 -0.06582682
0001d0 e8 9a 84 3c b3 b4 49 be 80 0e b0 bc b2 02 ce 3b
       0.016187146 -0.19697838 -0.02149129 0.0062869424
0001e0 28 49 3f be d8 be a4 3d 80 0f 58 3c c2 65 a7 3c
       -0.1868025 0.08044213 0.013187289 0.020434264
0001f0 38 5d 34 3b df 3e 1d 3d 3c 5d 96 bd 0c e4 e9 3c
       0.0027521383 0.038390037 -0.07342002 0.028551124
000200 aa 9f d8 bc 08 34 ea 3c 3b fd 0f 3e 2c 7b e0 3d
       -0.026443321 0.028589264 0.14061444 0.10960993
000210 95 4c 1c be db 83 01 be 50 7f 3a 3d 99 83 28 3d
       -0.15263589 -0.12647955 0.04553157 0.041141126
000220 60 e0 1b 3e e9 b7 24 be d5 e4 0f bc 64 be e3 3c
       0.15222311 -0.16085781 -0.008782585 0.027800746
000230 a4 5b 34 3c 25 19 4e 3c ea 08 04 3e 77 41 d7 3d
       0.011008177 0.012579237 0.12894025 0.10510533
000240 3b 57 1d be 33 87 c2 3d 43 ed fe 3d f3 35 9f bd
       -0.15365307 0.094984435 0.12447598 -0.07773962
000250 1b a8 ac 3d ef c4 2f be ac 47 b1 bd 36 cd 25 3c
       0.08430501 -0.17164968 -0.086562485 0.010119727
000260 56 8e 30 3d 80 18 7b 3d 77 d1 22 bd 90 f3 d2 3d
       0.043104492 0.061302662 -0.039750542 0.10300362
000270 17 95 20 bc 93 1e ba 3c d1 14 fe bd 03 75 1d bd
       -0.009801171 0.022719657 -0.12406314 -0.03844167
000280 89 59 4f 3d 23 56 29 3d 3c af 55 bd ba cc 0d 3d
       0.050622497 0.041341912 -0.05216907 0.03461907
000290 84 90 ce 3b 64 c5 9e bd 80 b1 b6 3b 0e 34 97 bd
       0.0063038487 -0.07752493 0.005575359 -0.073829755
0002a0 f0 c0 22 bc 33 4d d1 3d 77 57 3c 3e ee eb 90 3d
       -0.009933695 0.10219803 0.1839274 0.0707625
0002b0 d4 3e 33 bd 5e 97 6b 3c 42 9e d1 bd 55 36 c2 3d
       -0.04376109 0.0143793505 -0.102352634 0.09483019
0002c0 3b 59 d3 3d 72 6e cc bc 95 13 b7 3c 01 03 63 3d
       0.10319754 -0.024955008 0.022348205 0.055422787
0002d0 51 ca 01 bc 8c 4e 8f 3d 56 88 20 3e 92 16 82 3d
       -0.007921771 0.069974035 0.15677008 0.06351961
0002e0 66 b4 d7 bd 90 b5 90 bd 5a 89 11 3e d6 9b 92 3d
       -0.10532455 -0.0706588 0.14212552 0.071586296
0002f0 e2 93 82 b9 0c d7 61 3d 48 5e 20 3d 9b 20 c4 bd
       -0.00024905714 0.055136725 0.039152414 -0.095765315
000300 c1 c3 99 bd 2e f9 40 3e 5f 7e 04 be af 21 32 3d
       -0.0750804 0.18845055 -0.12938832 0.043489154
000310 ad 72 11 3d d4 b2 17 be a3 dd ab 3d 16 0a fc bd
       0.035509754 -0.14814311 0.08391883 -0.12306611
000320 00 f5 13 be 1d 64 0e be 0a c9 16 3e 7f b8 16 3e
       -0.14448929 -0.13905378 0.14725128 0.14718817
000330 98 c4 2a be 08 e7 4a 3d 3d 8c 0f be 32 4d 15 be
       -0.16676557 0.049536735 -0.1401834 -0.14580229
000340 b2 fd b6 bd 52 26 9a bd 85 7c 2d be 33 4e f7 3d
       -0.08935107 -0.0752684 -0.16942032 0.12075462
000350 85 d0 29 3e 4a 7d 1b 3e 80 8c 45 3c d8 f7 27 bd
       0.1658345 0.15184513 0.012057424 -0.041007847
000360 33 bd 81 bd 2a 9d c1 3d 26 0f 14 be 16 96 93 3d
       -0.06334915 0.09453805 -0.14458904 0.07206361
000370 c7 15 13 be cc 17 48 bd 01 ef 19 be 4a a6 19 3e
       -0.14363776 -0.04885082 -0.15032579 0.1500484
000380 56 b6 45 bd db 6f d1 bd b0 18 a2 3d 74 f8 18 3d
       -0.048269592 -0.10226413 0.07914865 0.03734632
000390 a8 2b 83 3d 20 98 1e 3e a6 0a 26 be c0 dd 8d bd
       0.06404811 0.15487719 -0.16215 -0.06927061
0003a0 6d b1 12 3e 40 1c 4d bb 41 22 80 3c d5 f7 97 bd
       0.14325495 -0.0031297356 0.015641334 -0.07420317
0003b0 60 33 f2 bd 31 6e 56 3b 61 79 98 3d d9 d5 2e be
       -0.11826205 0.0032719488 0.07445026 -0.17073764
0003c0 e0 fe 9f bb c4 d2 ab 3d 40 58 b5 3d 05 13 1a be
       -0.0048826784 0.0838981 0.08854723 -0.15046318
0003d0 cc e1 57 bd 06 41 27 be e8 d8 7b 3d 54 c5 4f 3d
       -0.05270557 -0.16333398 0.061486155 0.050725296
0003e0 1d 3c 2d be ed 6d df bd a9 64 d1 bd d8 fe 0d be
       -0.16917463 -0.109096386 -0.102242775 -0.13866746
0003f0 2c 1f 07 3e 49 81 70 3d 30 b6 d9 bc 78 eb 19 3d
       0.13195485 0.058717046 -0.026576132 0.037578076

sequential/dense_2/MatMul f4 [1, 150]
000000 59 31 0d be 62 d2 d7 3c e4 4e cd 3c 69 ba e6 bd
       -0.13788356 0.026345436 0.025062032 -0.11266024
000010 48 e6 b7 3d 14 82 dc bd 2d 17 4c be 70 d0 db bd
       0.089794695 -0.10766998 -0.19930716 -0.10733116
000020 e3 43 a5 bd 44 51 89 be 6a f0 c2 bd 10 74 5a be
       -0.08069589 -0.26819813 -0.095185116 -0.21333337
000030 bb cc ba bd 60 1f c3 3d 14 fb 71 3d c8 bf 20 3d
       -0.091210805 0.09527469 0.059077337 0.039245397
000040 84 48 f6 3d 87 4d 09 be ff f1 49 be d0 e3 0f 3e
       0.1202555 -0.1340848 -0.1972122 0.14051747
000050 36 ab 19 be 19 b9 95 bd 43 e3 0c 3e 80 24 a9 3d
       -0.15006718 -0.07310695 0.13758568 0.08258915
000060 76 fb e2 bc 44 8a bf bd 22 d5 87 3c 9d 0a 3b 3b
       -0.027707797 -0.09352544 0.016581122 0.0028540262
000070 04 2c 65 bd fe 22 97 bd 86 39 44 be 69 63 fe 3d
       -0.05595018 -0.07379721 -0.19162568 0.12421305
000080 bb f2 2b be 70 fe fa bd d0 c9 96 3d 04 1f fb bd
       -0.16791813 -0.12255561 0.073627114 -0.12261775
000090 2f d5 90 3e 2e 54 81 3d a6 10 ab 3d e0 87 29 be
       0.28287646 0.06314884 0.08352785 -0.16555738
0000a0 ac 4e 2e be 48 e2 47 3d ec b2 8a be b2 f1 87 3d
       -0.17022198 0.048799783 -0.27089632 0.066378966
0000b0 a1 8f 06 3e 45 fe 4a bd a4 cf c0 bd 77 43 0a be
       0.13140728 -0.049558897 -0.09414604 -0.13502298
0000c0 21 2c 3d be 79 60 2b 3e 20 b7 09 bd bb e4 3c be
       -0.18473865 0.1673602 -0.033621907 -0.18446629
0000d0 a6 2d 33 be 47 f9 0d 3e d7 74 48 be 25 a0 25 bd
       -0.17497882 0.13864623 -0.19575821 -0.04043593
0000e0 4c e5 88 3d 90 a1 4f bd 85 ab df bd 00 99 1a bb
       0.0668436 -0.050691187 -0.10921387 -0.002358973
0000f0 d4 49 f9 bd 14 be 6a bd 04 78 91 3d 23 47 48 be
       -0.12172285 -0.05731018 0.07102969 -0.19558387
000100 14 cf 69 bd d9 95 c4 bb 60 dc fa bd 54 61 69 bd
       -0.05708225 -0.0059993085 -0.122490644 -0.056977585
000110 a0 36 e5 bc 3e 8a 0d 3e 38 63 b4 3c 26 be 60 bd
       -0.027980149 0.13822266 0.022019967 -0.05486884
000120 d5 9e 1e be 62 43 33 3e e4 56 0e be ee d7 01 3e
       -0.15490277 0.17506173 -0.13900334 0.12680027
000130 88 df a7 be 55 8d 64 3d 7f f5 1a 3d aa 20 45 be
       -0.32787728 0.055798847 0.03783178 -0.19250742
000140 36 57 a1 bc ba a4 d6 bd e2 f4 2f be 18 2e 35 3d
       -0.019694906 -0.10480638 -0.17183259 0.04423341
000150 8e 70 14 3e 57 23 fc 3c 12 e3 a0 bd 77 d4 c2 3d
       0.14496061 0.03077857 -0.0785581 0.09513181
000160 89 45 66 be 3e df 4d 3b 43 16 4d 3d 10 ae 12 3e
       -0.22487463 0.003141358 0.05007006 0.14324212
000170 47 cd 2c 3e e8 8e 85 bc df e0 05 3e 89 6b 16 3e
       0.16875182 -0.016303495 0.13074063 0.14689459
000180 83 40 b2 bd 4c 32 9e 3d 61 e6 11 3e 93 05 d5 bd
       -0.08703711 0.07724437 0.14248039 -0.10401454
000190 2d e1 44 3e 85 1d 5a be 51 06 10 3e bb e2 3b 3a
       0.19226523 -0.21300323 0.1406491 0.00071672694
0001a0 bf e7 a0 3d 9d 7e 53 be 43 25 00 3e a3 dd 0c be
       0.07856702 -0.20653768 0.12514214 -0.13756423
0001b0 62 5a 63 bd 67 dd 53 3e 6d 7e d7 3d 2b ec 39 be
       -0.055506118 0.20689927 0.10522161 -0.18156497
0001c0 15 58 8e bc 14 c6 bf 3d dd f6 1d be 41 57 58 3d
       -0.017375985 0.09363952 -0.15426202 0.052817587
0001d0 86 1d ac bd cd 52 f0 bc f8 47 18 be 3d db 09 3e
       -0.08404069 -0.029336357 -0.14871204 0.13462539
0001e0 1e 3a 11 be 5c fe 04 be 00 f7 ed 3d fc 32 37 3e
       -0.14182326 -0.12987655 0.11619377 0.17890543
0001f0 b9 2b 07 3e d1 18 fb 3b 53 1b be 3c a5 10 ad 3d
       0.13200273 0.0076628705 0.023206389 0.0845044
000200 71 ac da 3d 08 a5 a7 bd 3a 4d b2 bd 8f 2f 0b 3e
       0.10677422 -0.08185774 -0.08706136 0.13592361
000210 38 2b 0b be 26 63 ad 3c c3 d7 a8 3e b4 60 36 3e
       -0.13590705 0.021165442 0.32977113 0.17810327
000220 a8 07 fe 3d d2 5c c1 3d 93 9f 43 3e b1 e9 75 be
       0.12403804 0.09441532 0.19103841 -0.24014927
000230 f0 cc 11 3d b2 09 79 bd 12 fe eb 3d c4 c9 95 bd
       0.035595834 -0.06080026 0.115230694 -0.07313874
000240 34 9e f2 3d 55 73 02 3e 8f 48 f6 3d f6 cd 10 3e
       0.11846581 0.12739308 0.12025558 0.14141068
000250 f7 9c a5 bb bf ed 6c 3d
       -0.005054112 0.05784392
