model.tflite (tflite, 124276 bytes, 4 tensors)

sequential/dense/MatMul1 f4 [50, 8]
0.06304133 -0.020992488 -0.2765419 0.0862982 -0.2439498 -0.24515319 0.24246961 -0.28572825
0.031996638 -0.2813254 0.08626822 -0.21111716 0.28361547 0.14905179 -0.036329865 -0.12818377
0.24987197 -0.29879928 0.21945924 0.22373927 0.21988624 0.009038448 -0.2670046 -0.14304142
0.10354546 0.059981734 0.193053 0.20219392 -0.08240612 0.04153222 0.23467875 -0.032378137
-0.09185965 0.23425639 0.26209176 -0.30395445 0.0073992014 0.16801745 -0.15741919 0.15568146
-0.21131286 0.04481435 -0.16834544 -0.21044396 -0.21354972 -0.017700523 -0.20218378 0.051646918
-0.1212907 -0.1456706 0.17407322 -0.30001476 0.20694172 0.3050462 -0.23163712 0.18640453
-0.0022489727 -0.2988027 0.12484589 0.19134033 -0.14847744 0.18091613 -0.20503426 0.063637316
-0.28621894 -0.16256587 -0.12026681 -0.15266459 0.28433824 0.21537739 -0.0316962 0.11607015
0.05298513 0.11715391 -0.18958092 0.29011464 0.20094293 -0.20108107 -0.21988745 -0.10568853
-0.001508981 -0.071168154 0.20453513 -0.036470205 0.090529114 0.21652466 -0.19937624 -0.275938
0.22995448 -0.13147072 0.06432837 0.3177659 -0.22941929 -0.25834775 -0.03842908 -0.03325647
-0.016837 -0.2173039 0.20919842 0.30873424 -0.2383483 -0.095755026 0.16430858 -0.30693507
-0.15899472 0.29542202 0.08563879 0.16163608 -0.13373649 -0.3062079 -0.07927874 -0.039671183
0.2642098 -0.057584822 -0.05478397 0.074034125 -0.18979694 0.07147366 -0.20322382 0.11172283
0.2515055 -0.30378988 0.19091636 0.27434546 0.2273125 -0.04432267 0.12657765 -0.28590962
0.07436746 -0.12569554 -0.18407843 0.29179728 -0.11767882 0.112588435 0.30585444 -0.19982377
-0.27073297 0.12885812 -0.2989331 -0.03643951 0.27893925 -0.25723016 0.18915635 -0.09940638
0.30385953 -0.20079449 0.29141754 -0.23450425 0.10797769 0.037201077 -0.014010668 0.29377568
0.1696266 -0.216607 -0.14820023 -0.08974044 -0.24954501 -0.25836214 0.30419445 -0.27263647
-0.0045270026 0.02189529 0.23545021 -0.09761076 -0.25500566 -0.055111557 0.0746676 -0.082614705
0.3068835 0.04832071 0.19796401 -0.023983747 -0.1570498 -0.26383966 -0.10285883 0.056334585
-0.20106786 -0.29593077 0.17428511 -0.14892933 -0.2734863 -0.199355 0.13321719 0.037193388
0.2726584 0.13125977 -0.19452171 0.27431762 -0.1342972 0.23916179 -0.04532084 -0.30494145
-0.26440695 -0.0818599 0.1227282 -0.21146008 -0.12138517 0.23874307 0.09227842 -0.06485689
0.27881473 0.08328912 -0.19615385 0.16652098 -0.14428453 -0.07104239 0.14006212 -0.028177023
-0.11184122 0.27458376 -0.19275507 0.17743856 -0.18246478 -0.12557323 -0.14556262 -0.077922285
0.27568525 -0.29115033 0.28363812 0.26429838 -0.031594366 0.17026803 -0.17574792 0.13255236
-0.3140185 -0.20421559 -0.106383964 0.3110683 -0.21262944 0.09994331 -0.26720905 0.18702829
0.08784258 -0.09003827 -0.26431388 -0.17316805 -0.0966135 -0.21024781 -0.22761217 0.0018494427
0.2572438 0.21839601 -0.1320322 -0.19635008 -0.31923854 -0.06618288 0.15366194 0.106782645
-0.1487416 -0.17098449 -0.011361957 0.08708066 0.22548443 -0.0868122 -0.22890452 -0.17519388
00000000: d01b 813d 70f8 abbc e696 8dbe 1cbd b03d
00000010: facd 79be 7009 7bbe f449 783e f94a 92be
00000020: e80e 033d e209 90be 64ad b03d 192f 58be
00000030: 0c36 913e 08a1 183e a0ce 14bd 9b42 03be
00000040: 70de 7f3e 38fc 98be ecb9 603e e81b 653e
00000050: dc29 613e 0016 143c d4b4 88be 7379 12be
00000060: a40f d43d 68af 753d b0af 453e ec0b 4f3e
00000070: 8ac4 a8bd b01d 2a3d a04f 703e f09e 04bd
00000080: ea20 bcbd e8e0 6f3e e430 863e eb9f 9bbe
00000090: 0075 f23b c40c 2c3e 7f32 21be f66a 1f3e
000000a0: 6662 58be 408f 373d bf62 2cbe 9f7e 57be
000000b0: c7ac 5abe b000 91bc 4409 4fbe b88b 533d
000000c0: 4267 f8bd ac2a 15be 4040 323e 899b 99be
000000d0: 88e8 533e 042f 9c3e 4832 6dbe d4e0 3e3e
000000e0: 8063 13bb abfc 98be 34af ff3d b8ee 433e
000000f0: 780a 18be 1442 393e 80f4 51be 4854 823d
00000100: 4a8b 92be ab77 26be 724e f6bd 1b54 1cbe
00000110: c894 913e e48b 5c3e e0d3 01bd 30b6 ed3d
00000120: f006 593d 64ee ef3d 8021 42be e889 943e
00000130: fcc3 4d3e 32e8 4dbe 2d2a 61be 3a73 d8bd
00000140: 00c9 c5ba 9cc0 91bd a871 513e c861 15bd
00000150: 5467 b93d a4b8 5d3e 4929 4cbe bf47 8dbe
00000160: 3079 6b3e 43a0 06be 98be 833d 36b2 a23e
00000170: e4ec 6abe 2846 84be d067 1dbd f037 08bd
00000180: c0ed 89bc ea84 5ebe 1c38 563e 6a12 9e3e
00000190: 9411 74be 361b c4bd 8240 283e 9826 9dbe
000001a0: 83cf 22be 8e41 973e 6463 af3d ee83 253e
000001b0: 38f2 08be 48c7 9cbe e45c a2bd 407e 22bd
000001c0: 8246 873e 10de 6bbd 2865 60bd 349f 973d
000001d0: 215a 42be c860 923d e819 50be f0ce e43d
000001e0: 54c5 803e 598a 9bbe 947f 433e 0277 8c3e
000001f0: 9cc4 683e b08b 35bd 929d 013e bf62 92be
00000200: f84d 983d 55b6 00be 0e7f 3cbe 7466 953e
00000210: 9801 f1bd c494 e63d f498 9c3e 9a9e 4cbe
00000220: 839d 8abe 62f3 033e c20d 99be 9841 15bd
00000230: 20d1 8e3e acb3 83be 34b2 413e 9295 cbbd
00000240: 7a93 9b3e 129d 4dbe ae34 953e e221 70be
00000250: 6823 dd3d 2860 183d 008d 65bc c469 963e
00000260: 98b2 2d3e 3ace 5dbe cdc1 17be d6c9 b7bd
00000270: ba88 7fbe 0b48 84be 60bf 9b3e 0297 8bbe
00000280: 4057 94bb c05d b33c dc19 713e 26e8 c7bd
00000290: 1a90 82be a8bc 61bd 54eb 983d e631 a9bd
000002a0: d61f 9d3e f0eb 453d 14b7 4a3e 9079 c4bc
000002b0: aad1 20be fe15 87be a6a7 d2bd 18bf 663d
000002c0: bce4 4dbe 3d84 97be cc77 323e ee80 18be
000002d0: 6506 8cbe b823 4cbe 166a 083e 1858 183d
000002e0: e299 8b3e f668 063e b330 47be 5c73 8c3e
000002f0: 3585 09be d4e6 743e 58a2 39bd 4921 9cbe
00000300: 5960 87be 2aa6 a7bd ec58 fb3d fe88 58be
00000310: ca98 f8bd 1079 743e 78fc bc3d b0d3 84bd
00000320: cec0 8e3e 7c93 aa3d 8edc 48be 7a84 2a3e
00000330: 53bf 13be ac7e 91bd 726c 0f3e 80d3 e6bc
00000340: 020d e5bd 3e96 8c3e 9661 45be 74b2 353e
00000350: 0cd8 3abe 4596 00be 5e0e 15be b895 9fbd
00000360: 9e26 8d3e a811 95be 0439 913e 1e52 873e
00000370: 1869 01bd be5a 2e3e 43f7 33be cebb 073e
00000380: 08c7 a0be e41d 51be d6df d9bd 5844 9f3e
00000390: 88bb 59be 14af cc3d a0cf 88be 5884 3f3e
000003a0: d0e6 b33d fc65 b8bd 2654 87be f752 31be
000003b0: 4cdd c5bd 344b 57be 2a13 69be 0069 f23a
000003c0: 76b5 833e 34a3 5f3e 7333 07be ff0f 49be
000003d0: 3c73 a3be e48a 87bd 8e59 1d3e dcb0 da3d
000003e0: b84f 18be 8f16 2fbe 8027 3abc 5857 b23d
000003f0: 64e5 663e 98ca b1bd f265 6abe 0666 33be

sequential/dense_1/MatMul f4 [150, 50]
0.046172574 -0.12327042 0.15784022 0.17154437 -0.08698217 0.08979872 0.16212851 0.14933419
-0.04948099 0.004443705 0.15764332 0.12751567 -0.12563965 -0.030003726 -0.042504966 0.024088502
-0.0711377 -0.10228592 -0.040249795 -0.08918746 0.023638383 0.1439988 -0.08747705 0.08941507
-0.07259253 0.09461644 -0.027897328 0.14999142 0.04727672 -0.026397318 0.055878505 -0.10626216
0.11969623 -0.1322593 -0.014297709 -0.015738964 -0.07449851 0.15562484 0.07469767 -0.16722709
-0.038347855 -0.124571264 0.061684996 0.073036045 -0.16064602 -0.024037376 0.16756848 -0.005013451
0.11618775 -0.10731771 -0.11629217 0.14643332 0.14731246 -0.078548506 0.14493808 0.13231757
-0.010725215 0.17286712 -0.0700456 -0.02621071 0.17093447 0.07569951 -0.15850474 0.10911134
0.14000419 -0.1678105 -0.020307913 -0.1712329 0.047480226 0.13479218 -0.12125335 0.01285775
-0.038706005 0.13083154 0.11059928 0.008229986 0.08528051 -0.14297497 0.05041422 -0.024247155
0.034496695 0.022112355 -0.0799319 -0.14194019 -0.120804384 -0.018915445 0.15005186 0.046469852
-0.16985565 0.13167194 0.088035166 -0.035600066 0.009240195 -0.087537095 -0.0747564 -0.118975416
-0.119286045 -0.03688459 0.030160487 -0.061773695 0.06799446 0.104682416 -0.1506184 0.081596196
0.03590995 -0.13806912 0.080019 -0.03944768 -0.020997837 -0.10214097 -0.11464556 -0.028029814
-0.12810978 0.08191118 0.07689884 -0.053057164 0.09018871 -0.11567204 -0.050779067 -0.13908045
-0.048907436 -0.12600656 0.11361328 0.11772868 0.09695241 0.03437999 -0.15429723 0.16416281
0.06677319 -0.06695299 0.14668593 0.03591709 -0.023550019 0.055503696 0.08859226 0.060298547
-0.054624647 -0.03625208 -0.07600542 0.1359519 -0.08011153 -0.14881459 0.09284371 -0.099162385
0.13008931 0.072349876 -0.111360565 -0.13247217 -0.1661997 -0.09611863 0.057929724 0.0988166
0.13574898 -0.17250772 -0.042988256 0.06041941 0.16735902 -0.09242208 -0.0064517707 0.090440154
0.00078581274 -0.047913045 -0.12704948 -0.16998973 -0.16713649 0.07888466 0.028727293 -0.13514426
0.09165102 -0.0024647117 -0.029985845 -0.15531005 0.15815401 0.02498895 -0.15382804 -0.108170666
0.07605812 0.09544945 0.11805266 0.08937457 0.016327098 -0.07823491 -0.16960384 0.16303995
-0.0392635 -0.03550063 0.12712461 0.08804914 0.10531199 -0.120605715 0.13563842 0.14830983
-0.10054272 -0.15909596 0.13628435 0.005949706 0.067310944 -0.08994899 0.09030911 -0.06660822
-0.06938417 -0.052507855 0.005833864 0.10937181 0.11425701 -0.0414903 0.13902271 0.07365972
-0.0646241 0.026475534 0.12674272 0.0668197 -0.10376908 -0.052336268 0.0047082007 0.0457194
-0.16868684 0.018210858 -0.10096079 0.14630231 0.005185455 -0.08815925 0.07467051 0.045711264
0.14876729 0.15175197 0.078581095 -0.0195418 0.06836781 -0.02760373 -0.040874675 -0.17111132
-0.081686825 0.06628162 -0.11783241 -0.1550308 -0.056815572 0.10017264 0.037272736 0.16443053
-0.085075766 -0.11208521 -0.08212836 0.0037156641 -0.05865664 -0.11972064 -0.04655522 0.16810465
-0.057820536 -0.12820426 -0.07607921 0.1315932 -0.08879668 0.019860148 0.10375106 -0.097156666
00000000: 741f 3d3d 3475 fcbd dea0 213e 54a9 2f3e
00000010: b523 b2bd 64e8 b73d 0405 263e 10eb 183e
00000020: 94ac 4abd 809c 913b 406d 213e 7893 023e
00000030: aea7 00be 60ca f5bc b019 2ebd 4055 c53c
00000040: a4b0 91bd 487b d1bd f8dc 24bd eaa7 b6bd
00000050: 48a5 c13c 6c74 133e 2b27 b3bd 401f b73d
00000060: 64ab 94bd 44c6 c13d f088 e4bc 5a97 193e
00000070: 3ca5 413d 303f d8bc dce0 643d fa9f d9bd
00000080: 4c23 f53d fb6e 07be f040 6abc 00ef 80bc
00000090: ad92 98bd 1e5c 1f3e 18fb 983d 943d 2bbe
000000a0: a412 1dbd 381f ffbd 68a9 7c3d ec93 953d
000000b0: 6480 24be 08ea c4bc 1297 2b3e e047 a4bb
000000c0: d8f3 ed3d 63c9 dbbd 972a eebd 9ef2 153e
000000d0: 14d9 163e 0ade a0bd a66a 143e 427e 073e
000000e0: d0b8 2fbc 1404 313e 1174 8fbd d8b7 d6bc
000000f0: 7209 2f3e 5808 9b3d 114f 22be c475 df3d
00000100: 425d 0f3e 84d6 2bbe c85c a6bc ad57 2fbe
00000110: a07a 423d f606 0a3e ad53 f8bd 50a9 523c
00000120: 308a 1ebd b4f8 053e e081 e23d 10d7 063c
00000130: 8ca7 ae3d 0868 12be 247f 4e3d f8a1 c6bc
00000140: 684c 0d3d f824 b53c 56b3 a3bd c558 11be
00000150: 4a68 f7bd 90f4 9abc 32a7 193e 2c57 3e3d
00000160: a4ee 2dbe 02d5 063e c84b b43d 60d1 11bd
00000170: 3064 173c a646 b3bd e219 99bd 62a9 f3bd
00000180: 3e4c f4bd 4c14 17bd 2013 f73c 6a06 7dbd
00000190: ae40 8b3d bc63 d63d b63b 1abe e81b a73d
000001a0: 5016 133d fe61 0dbe 00e1 a33d e493 21bd
000001b0: a803 acbc 492f d1bd 4bcb eabd c89e e5bc
000001c0: 362f 03be 0cc1 a73d 247d 9d3d 7852 59bd
000001d0: dcb4 b83d 76e5 ecbd b6fd 4fbd 1b6b 0ebe
000001e0: 2a53 48bd dd07 01be 14ae e83d bc1b f13d
000001f0: fc8e c63d 08d2 0c3d 1800 1ebe 4c1a 283e
00000200: 62c0 883d a61e 89bd d634 163e cc1d 133d
00000210: f8eb c0bc d857 633d dc6f b53d 9cfb 763d
00000220: 18be 5fbd 107d 14bd bba8 9bbd fa36 0b3e
00000230: 8411 a4bd da62 18be d824 be3d a615 cbbd
00000240: 2236 053e 2c2c 943d 0211 e4bd c9a6 07be
00000250: 4130 2abe d8d9 c4bd b847 6d3d 5c60 ca3d
00000260: c801 0b3e dda5 30be 7414 30bd 587a 773d
00000270: 2a60 2b3e ca47 bdbd 6069 d3bb b038 b93d
00000280: 00ff 4d3a 7840 44bd 4219 02be ca11 2ebe
00000290: d425 2bbe 488e a13d 8055 eb3c 4263 0abe
000002a0: 88b3 bb3d 0087 21bb e0a4 f5bc 9909 1fbe
000002b0: 20f3 213e a0b5 cc3c 1985 1dbe 9588 ddbd
000002c0: 5cc4 9b3d 007b c33d 98c5 f13d 040a b73d
000002d0: 68c0 853c a039 a0bd a1ac 2dbe f2f3 263e
000002e0: c4d2 20bd 1c69 11bd f42c 023e 1c53 b43d
000002f0: d0ad d73d 2100 f7bd cce4 0a3e 88de 173e
00000300: 57e9 cdbd 0dea 22be 208e 0b3e c0f5 c23b
00000310: 52da 893d 2d37 b8bd fcf3 b83d e469 88bd
00000320: 4a19 8ebd 7a12 57bd 002a bf3b 54fe df3d
00000330: 94ff e93d bcf1 29bd f85b 0e3e e8da 963d
00000340: a459 84bd 38e3 d83c d8c8 013e c4d8 883d
00000350: e284 d4bd 8e5e 56bd 4047 9a3b 4444 3b3d
00000360: 3ebc 2cbe f02e 953c 88c4 cebd 46d0 153e
00000370: c0ea a93b d68c b4bd daec 983d bc3b 3b3d
00000380: 7456 183e de64 1b3e 20ef a03d 2016 a0bc
00000390: 6c04 8c3d 3821 e2bc 346c 27bd ce37 2fbe
000003a0: 6c4b a7bd a8be 873d 1e52 f1bd 65c0 1ebe
000003b0: 72b7 68bd 5027 cd3d 4cab 183d 7a60 283e
000003c0: 343c aebd ee8c e5bd ea32 a8bd 8082 733b
000003d0: f241 70bd 1830 f5bd b0b0 3ebd a023 2c3e
000003e0: 3ad5 6cbd fa47 03be 6bcf 9bbd 5ec0 063e
000003f0: 09db b5bd c0b1 a23c 707b d43d 13fa c6bd

sequential/dense_2/MatMul f4 [150, 150]
-0.13716389 0.05132869 -0.021507911 0.030526996 -0.1245315 0.07841189 -0.0640592 0.019999146
0.01862669 -0.11947968 -0.107154086 0.11788447 0.031343132 -0.0014951974 -0.122328065 0.016513065
-0.070958704 -0.033047885 -0.047982708 -0.123406485 0.110041425 -0.09408165 -0.045164764 0.06021756
-0.13771106 -0.13436638 0.06818564 0.09989774 -0.067170955 -0.046299495 -0.13386972 -0.072877064
0.0075416565 0.105939284 -0.11261581 0.010854021 0.038423225 -0.09681718 0.13062812 0.06601457
-0.0045997053 -0.06480122 -0.032685928 -0.11226791 0.101873964 -0.06857057 -0.09331832 0.07217355
0.021934092 -0.04981879 -0.08983834 -0.0139861405 -0.1391924 0.089473754 0.009516358 0.10596639
-0.045428507 0.06664884 -0.039395876 -0.11540064 -0.027882837 0.1130064 0.070072785 0.042426094
0.10398477 -0.041919693 0.01614575 0.017794326 0.010931641 0.13964663 -0.031237796 -0.03487972
-0.02718947 -0.048346452 0.07489556 -0.11402796 -0.056692906 -0.053810135 0.07997355 0.004212588
0.076548114 0.14087267 -0.00972271 0.115759775 -0.08109894 -0.055849835 -0.05671051 0.11533348
-0.12070791 -0.08223677 0.09219313 0.13579644 0.077199444 0.073109716 -0.03664945 -0.05866933
-0.007248953 -0.012042433 -0.047926463 -0.054287776 -0.0055329055 0.05250837 0.0060630143 0.06303465
0.04982826 -0.123531915 0.028475493 -0.07480934 -0.096069664 0.057150662 -0.102402754 0.069419846
-0.061101034 0.10438086 0.022546649 -0.052933276 -0.049339935 -0.056941308 0.046045676 -0.012640953
-0.113850206 0.055866927 0.024699539 0.0068529695 0.044750676 -0.10006131 0.039443687 -0.1136096
-0.017537437 -0.09735403 0.042067945 0.0891002 -0.13812669 0.13494922 0.020727828 -0.105444305
-0.09489704 0.011486575 -0.08629416 -0.12435388 -0.12298525 0.049881175 0.08229415 -0.045317307
0.00048744678 0.028571889 0.08696382 -0.12645316 0.041840494 -0.06834442 0.025808915 -0.038645998
-0.006539777 -0.016078115 0.028514639 0.07052797 0.032928392 -0.12200441 -0.021502584 -0.060155794
0.12362893 0.13302629 -0.0039668977 -0.10526914 -0.04483656 -0.12708247 -0.010986641 0.0040070564
-0.061664484 -0.14050432 -0.07859518 0.008563086 -0.042370096 -0.09887159 -0.11236364 0.13322593
-0.043341093 0.11702196 0.10540624 0.011512592 -0.088596225 -0.06926575 0.09800181 0.106456
-0.05982122 -0.03467661 0.030299842 0.1372558 0.07993339 0.0491585 -0.047484025 -0.13807245
-0.10116438 -0.051495664 0.124430105 -0.011646897 -0.10251466 0.13769837 -0.05047652 -0.1324364
-0.13612017 0.105346456 -0.14001781 -0.12462446 -0.124786004 -0.054525413 0.08119017 -0.06356783
-0.0931876 0.10716514 -0.09903131 -0.10245535 -0.083378136 0.0991687 -0.12833345 -0.07467319
-0.05413854 -0.113774076 0.041717663 0.06862441 -0.015571311 0.09016088 0.10619742 0.09316251
0.100302696 -0.0070614815 -0.10178785 -0.03527583 -0.1306291 0.12370251 -0.028671056 0.0022571534
-0.009528592 0.01596266 0.10861118 -0.08886063 -0.0394329 -0.012312412 -0.0037482977 0.114505306
0.13706051 -0.12081075 0.020950392 -0.01148589 0.015756994 -0.06559351 -0.13690315 -0.115487054
0.02014047 -0.0101983845 0.09117848 0.026409924 -0.015627608 0.0120719075 0.11380638 -0.1367526
00000000: b174 0cbe 083e 523d 5c31 b0bc c013 fa3c
00000010: 5f0a ffbd 6a96 a03d 7831 83bd 40d5 a33c
00000020: 0097 983c c3b1 f4bd 9a73 dbbd 6a6d f13d
00000030: a861 003d 80fa c3ba 2387 fabd 6846 873c
00000040: cc52 91bd 385d 07bd 8489 44bd 8abc fcbd
00000050: 665d e13d e1ad c0bd b0fe 38bd b0a6 763d
00000060: 2104 0dbe 5797 09be eaa4 8b3d 3097 cc3d
00000070: ed90 89bd 8aa4 3dbd 2515 09be 9240 95bd
00000080: 0020 f73b b2f6 d83d 1ea3 e6bd 10d5 313c
00000090: ac61 1d3d 1648 c6bd 61c3 053e a632 873d
000000a0: 20b9 96bb 81b6 84bd aee1 05bd b8ec e5bd
000000b0: 4ca3 d03d ba6e 8cbd ad1d bfbd bacf 933d
000000c0: 20af b33c ca0e 4cbd 2afd b7bd 2026 65bc
000000d0: 7488 0ebe 043e b73d 80ea 1b3c e804 d93d
000000e0: 3e13 3abd 307f 883d 925d 21bd 2c57 ecbd
000000f0: 8c6a e4bc e66f e73d 5282 8f3d fcc6 2d3d
00000100: f8f5 d43d fcb3 2bbd 1844 843c 68c5 913c
00000110: a01a 333c 87ff 0e3e 68e6 ffbc 0ade 0ebd
00000120: 74bc debc ee06 46bd d862 993d 7e87 e9bd
00000130: d236 68bd 0468 5cbd 2cc9 a33d c009 8a3b
00000140: 42c5 9c3d ed40 103e 004c 1fbc 7613 ed3d
00000150: 3317 a6bd ccc2 64bd 4849 68bd f633 ec3d
00000160: b535 f7bd c06b a8bd c0cf bc3d 390e 0b3e
00000170: be1a 9e3d 8cba 953d bc1d 16bd 404f 70bd
00000180: a088 edbb a04d 45bc 8a4e 44bd dc5c 5ebd
00000190: 604d b5bb 0413 573d 40ac c63b 5018 813d
000001a0: b818 4c3d 4dfe fcbd 7045 e93c a435 99bd
000001b0: 2cc0 c4bd d016 6a3d 89b8 d1bd fe2b 8e3d
000001c0: 1445 7abd a2c5 d53d c0b3 b83c 90d0 58bd
000001d0: ac18 4abd 4a3b 69bd 649a 3c3d 001c 4fbc
000001e0: 4c2a e9bd b8d4 643d b056 ca3c e08e e03b
000001f0: 7c4c 373d f2ec ccbd b48f 213d 26ac e8bd
00000200: acaa 8fbc 8d61 c7bd 704f 2c3d 2a7a b63d
00000210: 1571 0dbe 2130 0a3e 68cd a93c 2ff3 d7bd
00000220: 6159 c2bd 3032 3c3c feba b0bd 3fad febd
00000230: b1df fbbd 3450 4c3d d689 a83d a49e 39bd
00000240: 0090 ff39 980f ea3c 161a b23d f07c 01be
00000250: f060 2b3d 29f8 8bbd 386d d33c 444b 1ebd
00000260: a04b d6bb 40b6 83bc 8897 e93c f870 903d
00000270: ecdf 063d 73dd f9bd 3026 b0bc ec65 76bd
00000280: 2a31 fd3d 0b38 083e c0fc 81bb 5997 d7bd
00000290: 8aa6 37bd e821 02be 5001 34bc a04d 833b
000002a0: e693 7cbd 5de0 0fbe 82f6 a0bd 304c 0c3c
000002b0: 448c 2dbd 307d cabd e81e e6bd 616c 083e
000002c0: 6e86 31bd 36a9 ef3d 3adf d73d 509f 3c3c
000002d0: f071 b5bd 34db 8dbd 2cb5 c83d 9a05 da3d
000002e0: 1807 75bd 1009 0ebd 6037 f83c c98c 0c3e
000002f0: 1eb4 a33d 6c5a 493d 9c7e 42bd dd62 0dbe
00000300: 452f cfbd 1eed 52bd 36d5 fe3d a0d2 3ebc
00000310: 35f3 d1bd cd00 0d3e 78c0 4ebd 689d 07be
00000320: 1663 0bbe e2bf d73d d460 0fbe 1c3b ffbd
00000330: ce8f ffbd 0a56 5fbd 0847 a63d da2f 82bd
00000340: 24d9 bebd 6679 db3d edd0 cabd 1cd4 d1bd
00000350: 28c2 aabd f618 cb3d d869 03be 42ee 98bd
00000360: 60c0 5dbd 6202 e9bd 24e0 2a3d f48a 8c3d
00000370: d01e 7fbc 44a6 b83d 087e d93d fccb be3d
00000380: 806b cd3d 0064 e7bb 2676 d0bd 647d 10bd
00000390: a3c3 05be be57 fd3d 90df eabc c0ec 133b
000003a0: d01d 1cbc 20c4 823c 8a6f de3d 90fc b5bd
000003b0: 6484 21bd 00ba 49bc 00a6 75bb c281 ea3d
000003c0: 9759 0c3e a06b f7bd 28a0 ab3c 502f 3cbc
000003d0: d014 813c e455 86bd 5730 0cbe 7a84 ecbd
000003e0: a0fd a43c 2017 27bc c8bb ba3d a059 d83c
000003f0: 7805 80bc 40c9 453c 5213 e93d e008 0cbe

sequential/dense_3/MatMul f4 [1, 150]
0.11987528 0.18748811 -0.1297741 0.10088551 0.06724274 0.13708776 -0.15229352 0.0757249
0.13854852 0.041200474 -0.16907609 -0.029362664 -0.14112093 0.1476852 0.09387225 -0.13699134
-0.1281847 -0.13105121 -0.019324988 0.19823226 0.08103347 -0.05092369 -0.090948574 0.16281179
-0.13455765 0.19577104 -0.02561818 -0.016119912 -0.12810999 -0.0975829 0.084798485 0.066293865
0.14036664 -0.10226312 -0.09456479 -0.0036576092 -0.19550347 -0.10425041 -0.14789341 -0.08202608
0.17244318 0.08583683 -0.11058262 0.061910063 -0.027705118 0.104118854 -0.1961935 -0.001972735
-0.12357339 0.10784614 0.18381894 0.08709648 -0.06372546 0.053167522 -0.07050365 -0.01990959
-0.10466483 -0.15406209 -0.17549907 -0.16843586 -0.0039314628 -0.09819094 0.19477153 -0.011854202
-0.07828881 -0.17766313 0.027872413 0.0061912984 0.027245924 0.1579234 -0.01074335 -0.09207531
-0.021303475 0.13310644 -0.0757441 -0.13808551 0.094879776 -0.06324963 0.0761022 -0.19875993
0.06324738 -0.06661838 -0.014968559 0.19247824 0.07939643 -0.045161456 -0.02670908 -0.13900813
0.12072703 -0.1267379 0.13150808 -0.19296409 0.0045183003 -0.08340921 -0.0064961314 0.090682894
-0.17070997 -0.13758568 0.15048683 0.07974389 0.17296124 -0.024148494 -0.0009737462 -0.062131494
0.10069412 -0.0016541332 -0.11762263 0.027093887 -0.089535065 0.09147906 0.056142002 -0.13403559
0.08841309 0.14205766 0.098336935 0.020520449 0.045663983 -0.116688795 -0.13803513 0.14622563
-0.053591773 0.041877523 0.054121256 0.17052266 0.123523444 -0.035053387 0.1733835 0.102277756
-0.0976895 0.11002922 0.19030157 0.08927572 0.15859768 -0.11217092 -0.15928505 -0.051624358
-0.14853315 -0.09092814 -0.01702489 -0.09387339 -0.07874543 -0.19566421 0.0744783 0.18482062
-0.06062071 0.16464373 -0.1593253 -0.15061754 -0.06902446 -0.0015323609
00000000: 2c81 f53d e2fc 3f3e 80e3 04be 109d ce3d
00000010: 90b6 893d bc60 0c3e d5f2 1bbe a815 9b3d
00000020: aadf 0d3e d4c1 283d 4822 2dbe f889 f0bc
00000030: 0182 10be ca3a 173e 1840 c03d 7547 0cbe
00000040: da42 03be 4a32 06be 704f 9ebc 66fd 4a3e
00000050: e0f4 a53d 5c95 50bd 3f43 babd 22b8 263e
00000060: 7bc9 09be 3478 483e 38dd d1bc e80d 84bc
00000070: 442f 03be 8bd9 c7bd d4aa ad3d 14c5 873d
00000080: 46bc 0f3e 546f d1bd 2fab c1bd 80b4 6fbb
00000090: 1032 48be 3d81 d5bd 5f71 17be 4afd a7bd
000000a0: f294 303e 38cb af3d 2479 e2bd 6895 7d3d
000000b0: d8f5 e2bc 443c d53d f3e6 48be 0049 01bb
000000c0: 0c14 fdbd 70de dc3d 083b 3c3e a45f b23d
000000d0: 7e82 82bd 30c6 593d 3864 90bd 7019 a3bc
000000e0: 845a d6bd 74c2 1dbe 07b6 33be 737a 2cbe
000000f0: 80d3 80bb 5518 c9bd 3072 473e 2038 42bc
00000100: e255 a0bd 53ed 35be b054 e43c 60e0 ca3b
00000110: d832 df3c acb6 213e e004 30bc fb91 bcbd
00000120: a084 aebc 0e4d 083e b91f 9bbd 4a66 0dbe
00000130: 5450 c23d 0689 81bd 78db 9b3d b987 4bbe
00000140: d887 813d 386f 88bd b03e 75bc 0419 453e
00000150: 989a a23d 38fb 38bd 00cd dabc 2658 0ebe
00000160: bc3f f73d 94c7 01be 0eaa 063e 6198 45be
00000170: 400e 943b 73d2 aabd 80dd d4bb f4b7 b93d
00000180: 98ce 2ebe 43e3 0cbe 3819 1a3e c450 a33d
00000190: c01c 313e 10d3 c5bc 0043 7fba 987d 7ebd
000001a0: b838 ce3d 80cf d8ba 22e4 f0bd 00f4 dd3c
000001b0: 295e b7bd 6059 bb3d 28f5 653d a040 09be
000001c0: ec11 b53d 9077 113e e064 c93d 801a a83c
000001d0: 280a 3b3d 89fa eebd 1559 0dbe 2cbc 153e
000001e0: 0c83 5bbd c487 2b3d 40ae 5d3d 7e9d 2e3e
000001f0: dcf9 fc3d 2494 0fbd 728b 313e 0077 d13d
00000200: 6f11 c8bd 0057 e13d 6ade 423e 30d6 b63d
00000210: 6e67 223e deb9 e5bd 9f1b 23be 1074 53bd
00000220: 1319 18be 8838 babd c877 8bbc b140 c0bd
00000230: 4945 a1bd 335c 48be 1488 983d 9e41 3d3e
00000240: 6c4d 78bd 5e98 283e 2c26 23be 7c3b 1abe
00000250: b25c 8dbd 80d9 c8ba
